checkpoint_srgan.pth.tar (torch, 248593 bytes, 18 tensors)

weight f4 [64, 3, 9, 9]
0.01722265 -0.019604113 0.014714357 0.06134984 -0.054770753 -0.013737061 -0.043863975 0.036959365
-0.025239518 0.0026417852 -0.027960138 -0.0034551693 -0.025885517 -0.061999317 -0.0599069 0.021069339
0.025337474 -0.018290216 -0.008947785 0.036236428 -0.022218522 0.02506696 0.040224724 0.00872665
-0.046559054 0.0083112605 0.043660525 0.035201747 0.037177734 -0.016810277 0.014520592 -0.059047014
-0.018010342 0.020211587 0.023271076 0.028990144 0.029252233 0.06320766 0.026468461 0.032149628
-0.013663537 -0.02727828 -0.039005984 -0.07492563 0.028112803 0.05768434 0.040021118 -0.004353593
0.0317823 -0.06807949 0.022246683 -0.07593575 -0.06782355 0.009265037 -0.023930617 -0.0069575654
-0.03636426 0.020073622 -0.06718533 -0.011036077 -0.058544848 -0.021550035 -0.032812662 -0.01889996
0.049711898 0.061435666 -0.018132042 0.0029178648 0.006350875 0.05069322 0.047056623 0.012806781
0.025244867 0.006674244 -0.060320456 -0.0083464105 0.060793474 -0.037555 0.03351053 0.056651603
-0.014618752 0.010965587 0.048878554 -0.049110997 0.045673616 0.017649604 -0.044119142 -0.037931893
-0.020761704 0.03179133 -0.056282714 -0.03192723 -0.04317158 0.013581009 0.047433972 -0.006980638
0.06137317 -0.057338245 0.03770429 -0.0036298626 -0.04194095 -0.034209985 0.0149344 -0.0127143795
0.032514744 0.028366968 0.04144423 0.034709927 -0.0074009085 0.04603952 -0.034020334 0.017984474
-0.030671999 -0.048447657 -0.03312695 -0.006283564 0.044753473 -0.01256797 0.06352583 -0.012888902
0.013659735 0.0054183095 -0.0133974375 0.025568806 -0.038885072 -0.006163876 0.004050223 -0.028578667
0.017116778 -0.04745868 -0.05079706 -0.067703255 0.043436367 -0.012558266 0.04187514 0.00865092
0.06296631 0.05046658 0.013685604 0.034739364 0.05880124 -0.055765126 -0.031569608 0.020365948
-0.037778303 0.065671824 -0.004200454 -0.014057034 0.05825485 -0.029591493 -0.038821395 -0.060462594
-0.043630335 0.051864408 0.04426193 0.04270231 -0.058549676 0.026487568 0.012992412 0.065317474
0.046506353 -0.034693245 -0.0017873163 0.065042384 -0.047284808 -0.03640554 0.04083136 -0.03146369
0.0592114 0.023489794 0.0056784977 -0.05384654 -0.013625939 -0.045790657 0.041560113 0.026873572
0.018125908 -0.038703036 -0.0581186 0.045753274 -0.003951805 0.06442503 0.039269663 -0.029038997
0.051615182 -0.050464563 -0.0073918854 -0.0034702749 -0.036695153 -0.032689683 -0.007948776 0.0004850902
0.04251558 -0.020278893 0.017018566 -0.03083567 0.020240117 0.04281266 0.03658871 0.06919159
-0.0465419 -0.016443023 -0.055708513 0.032917984 0.020008689 -0.04930238 0.021069396 -0.0052613206
-0.05775973 -0.043413524 0.032885384 0.031102374 -0.061949853 0.048674393 -0.052194785 0.03567103
-0.040302344 0.009212576 -0.03749677 0.011354118 -0.018585809 0.0036762187 -0.05626482 -0.03129449
-0.045463108 -0.020184757 0.04945988 -0.027544219 0.013506053 0.02270424 0.055012695 0.050529547
-0.051550724 0.027510047 -0.035520095 -0.0003079692 -0.03281021 0.05409089 0.06031329 -0.04357474
-0.009470855 -0.02625438 0.026693095 0.03086554 0.04135525 0.018858565 0.048811294 -0.043974232
0.05099068 -0.0060098073 0.006019296 -0.036719404 0.03597198 0.051049218 0.018573143 0.020268405
00000000: 8416 8d3c ce98 a0bc 7d14 713c f849 7b3d
00000010: 4c57 60bd 6911 61bc b6aa 33bd b462 173d
00000020: 1bc3 cebc cd21 2d3b a90c e5bc 1f70 62bb
00000030: dd0d d4bc fff2 7dbd f060 75bd 9b99 ac3c
00000040: 8990 cf3c 5dd5 95bc bb99 12bc a66c 143d
00000050: 9e03 b6bc 3a59 cd3c aec2 243d 39fa 0e3c
00000060: b5b4 3ebd f42b 083c 61d5 323d b52f 103d
00000070: ae47 183d b5b5 89bc c7e7 6d3c 48db 71bd
00000080: 6d8a 93bc c592 a53c fca2 be3c bd7c ed3c
00000090: 61a2 ef3c 0573 813d 63d4 d83c 54af 033d
000000a0: 07dd 5fbc b376 dfbc bdc4 1fbd 9c72 99bd
000000b0: d24c e63c 6a46 6c3d 2fed 233d 96a8 8ebb
000000c0: 282e 023d 426d 8bbd ad3e b63c 3484 9bbd
000000d0: 13e7 8abd 62cc 173c 240a c4bc 4afc e3bb
000000e0: b1f2 14bd 7071 a43c 7698 89bd a9d0 34bc
000000f0: b9cc 6fbd b389 b0bc 9266 06bd 17d4 9abc
00000100: b49e 4b3d f7a3 7b3d a689 94bc a639 3f3b
00000110: 001b d03b b2a3 4f3d 72be 403d 88d3 513c
00000120: 53ce ce3c 9eb3 da3b 9512 77bd 62bf 08bc
00000130: 9402 793d 46d3 19bd 5642 093d 830b 683d
00000140: 7d83 6fbc 01a9 333c e134 483d 9d28 49bd
00000150: 4214 3b3d e795 903c 46b6 34bd 795e 1bbd
00000160: 7314 aabc a037 023d b488 66bd 21c6 02bd
00000170: afd4 30bd e182 5e3c 204a 423d d6bd e4bb
00000180: 6f62 7b3d 82db 6abd d06f 1a3d fde2 6dbb
00000190: 46ca 2bbd c51f 0cbd 6aaf 743c f94f 50bc
000001a0: 2e2e 053d d861 e83c 6dc1 293d ff2b 0e3d
000001b0: 5283 f2bb f093 3c3d e858 0bbd 2d54 933c
000001c0: d843 fbbc 0d71 46bd 20b0 07bd 5be6 cdbb
000001d0: 6b4f 373d e3e9 4dbc d519 823d f92b 53bc
000001e0: 15cd 5f3c 138c b13b ed80 5bbc ac75 d13c
000001f0: f445 1fbd 57fa c9bb bcb7 843b cf1d eabc
00000200: 7c38 8c3c 0864 42bd 9410 50bd 01a8 8abd
00000210: 55ea 313d 2fc1 4dbc 4485 2b3d 97bc 0d3c
00000220: 7bf4 803d 0bb6 4e3d 9539 603c dd4a 0e3d
00000230: 92d9 703d f969 64bd 224f 01bd 7dd6 a63c
00000240: 6cbd 1abd f37e 863d f6a3 89bb 794f 66bc
00000250: a39c 6e3d dc69 f2bc 2f03 1fbd a0a7 77bd
00000260: b9b5 32bd c66f 543d ff4b 353d 9ee8 2e3d
00000270: c9d1 6fbd 75fc d83c 20de 543c 2bc5 853d
00000280: 727d 3e3d 811a 0ebd 6244 eaba f134 853d
00000290: b7ad 41bd fa1d 15bd c93e 273d 12e0 00bd
000002a0: a787 723d ab6d c03c b112 ba3b 318e 5cbd
000002b0: 553f 5fbc fc8e 3bbd f03a 2a3d f725 dc3c
000002c0: c97c 943c 1387 1ebd c50d 6ebd c967 3b3d
000002d0: 257e 81bb 45f1 833d 3ad9 203d 31e3 edbc
000002e0: 716a 533d eeb3 4ebd a137 f2bb 8d6d 63bb
000002f0: a84d 16bd 9ee5 05bd 953b 02bc b453 fe39
00000300: d124 2e3d ec1f a6bc 856a 8b3c 169b fcbc
00000310: 9ace a53c 545c 2f3d 0bde 153d 52b4 8d3d
00000320: b8a2 3ebd 85b3 86bc 9c2e 64bd 02d5 063d
00000330: 43e9 a33c 4bf1 49bd ba99 ac3c 2867 acbb
00000340: 7795 6cbd 61d2 31bd d3b2 063d 68ca fe3c
00000350: 21bf 7dbd cd5e 473d 33ca 55bd c91b 123d
00000360: 1214 25bd 58f0 163c 3796 19bd 9f06 3a3c
00000370: 4441 98bc b7ec 703b f175 66bd a72e 00bd
00000380: 8637 3abd 815a a5bc 7196 4a3d 6aa4 e1bc
00000390: 7e48 5d3c 3efe b93c fe54 613d 12f8 4e3d
000003a0: da26 53bd c05c e13c 857d 11bd ed76 a1b9
000003b0: 0064 06bd 698e 5d3d 120b 773d 6d7b 32bd
000003c0: a52b 1bbc 6d13 d7bc 7aab da3c bbd9 fc3c
000003d0: 1f64 293d 477d 9a3c 5aee 473d 531e 34bd
000003e0: 9adb 503d ebed c4bb 843d c53b 1667 16bd
000003f0: 5b57 133d fc18 513d b426 983c ed09 a63c

bias f4 [64]
-0.035467457 0.03325006 -0.0072482987 -0.046487696 0.02907011 -0.023037337 0.029984448 -0.035812665
0.06711964 -0.026037155 -0.05912076 0.04158704 0.01418993 -0.016464164 0.07367071 0.15537594
0.0644032 -0.0322259 0.017476488 0.03045064 -0.04363864 0.017530452 -0.026023217 -0.013903994
0.05193223 -0.018826967 0.013772961 0.03908866 -0.04836162 -0.049936797 -0.028082848 0.054285627
-0.02472426 0.009577398 -0.003170856 0.023417449 0.017191673 -0.030003754 0.040105056 -0.045497075
0.044309095 0.019348439 0.01794299 0.05901166 -0.01706781 -0.0073256698 0.031186908 0.0031128065
-0.041800432 0.061893277 0.010529134 0.040129796 -0.0061612683 0.04703844 0.06916118 -0.056370888
-0.022706645 -0.011306616 0.02029523 -0.054399125 0.11596048 0.062149134 -0.055858187 -0.021859124
00000000: 5346 11bd 3731 083d 2383 edbb e269 3ebd
00000010: 7024 ee3c ccb8 bcbc f2a1 f53c 4db0 12bd
00000020: 0676 893d df4b d5bc 9c28 72bd 2c57 2a3d
00000030: e17c 683c dbdf 86bc abe0 963d df1a 1f3e
00000040: d3e5 833d 4eff 03bd da2a 8f3c 9f73 f93c
00000050: 6ebe 32bd 069c 8f3c a42e d5bc 94cd 63bc
00000060: e4b6 543d 033b 9abc fca7 613c 6e1b 203d
00000070: d616 46bd 878a 4cbd 000e e6bc 9b5a 5e3d
00000080: 888a cabc 85ea 1c3c 23ce 4fbb f3d5 bf3c
00000090: 8dd5 8c3c 6fca f5bc 3345 243d 245b 3abd
000000a0: 747d 353d 9e80 9e3c 2dfd 923c 36b6 713d
000000b0: cbd1 8bbc 2c0c f0bb b07b ff3c 3a00 4c3b
000000c0: ee36 2bbd ce83 7d3d 6482 2c3c 245f 243d
000000d0: 77e4 c9bb 61ab 403d 60a4 8d3d 29e5 66bd
000000e0: 4903 babc 623f 39bc 2f42 a63c 9ed1 5ebd
000000f0: b07c ed3d 1790 7e3d 8ecb 64bd e811 b3bc

weight f4 [32, 64, 1, 1]
0.0062777908 0.026375592 -0.1272449 -0.020528572 -0.08322036 -0.06086587 -0.0042660227 0.029231165
0.06825042 0.11370675 -0.04624522 -0.009604841 0.10956975 0.04324721 0.010602068 -0.042392846
-0.027456906 0.010467159 0.019462982 0.09988862 -0.20018393 -0.07003 -0.08011435 0.06698541
-0.09913331 -0.09000068 0.0754092 0.10568672 -0.04583832 0.025815258 -0.04011154 0.007200914
-0.083785266 -0.009625179 0.06684475 0.08791702 -0.035754137 0.040506057 -0.03517103 -0.08310803
-0.0412256 -0.04538998 0.06380836 0.05078055 0.12126306 -0.11698872 0.018540166 0.1465232
0.055560682 -0.007559588 -0.027852174 0.011737639 -0.056824658 -0.051133897 0.035975304 0.100449555
0.0021490776 0.11711342 0.0664858 0.06633463 0.05584679 0.10110361 -0.08194378 0.07541151
0.12250277 0.12714836 -0.04578015 -0.072085686 0.027373964 0.04234209 -0.06528632 -0.09737756
-0.011267634 -0.02665615 -0.029307796 -0.11131421 0.05250919 0.045498256 0.014483388 -0.09231514
0.13705342 -0.040005084 -0.0012717071 -0.09892292 -0.078103244 -0.08182985 -0.05195795 0.018944638
0.099842936 -0.1129228 -0.05998306 -0.012457967 -0.0069519323 0.044938654 -0.016566604 -0.024093436
0.052330274 -0.07115856 0.030526984 0.06432289 0.118245795 -0.0644408 -0.14555696 0.027503736
0.025848093 0.05531349 0.048797313 0.05685332 -0.066705965 -0.06512713 -0.13505958 -0.11297986
-0.030901829 -0.095452376 0.06949535 -0.019094305 0.056788 0.09141929 0.043701325 0.041401453
0.09459392 0.066850446 0.074367985 -0.08413624 -0.059795376 0.08941265 0.0672387 0.09628592
0.03597601 -0.12013579 -0.100765 -0.034861073 -0.06711044 -0.02674402 -0.05903047 -0.04592499
-0.0016839904 0.037038796 0.11846796 0.022558393 0.06974992 0.10125711 -0.07731647 -0.046074722
0.00015944375 0.077580124 0.092720434 0.10410645 0.0014112431 0.074821 0.041616857 0.122272626
-0.002631083 -0.023874652 0.046833366 -0.036100794 -0.13265292 0.03654693 0.123190455 -0.08832431
0.016196791 -0.08963921 -0.1544907 -0.13422398 -0.042341657 -0.052532542 -0.0966372 0.05498946
0.07338085 -0.0058254437 0.118430525 0.004271497 -0.052727334 0.026407704 0.1264019 0.08916545
-0.07925262 -0.094429225 -0.10109901 0.11410369 -0.036192838 0.08600933 -0.10797043 -0.040766038
0.066448346 -0.04683916 0.123615116 0.030275106 0.05879799 -0.006573862 0.038131732 -0.10603681
0.080903985 0.0034055018 -0.0834595 -0.099547096 0.14736524 0.09516705 0.10944684 0.08432644
0.12821914 0.08360557 -0.067511044 0.06411058 0.11582478 -0.07171421 0.090146065 -0.042680386
0.028416315 -0.014855021 0.03817498 -0.12225074 -0.14379491 0.032077312 0.09339453 0.039081626
-0.051785234 0.06343986 -0.018487228 0.06481385 -0.1263062 -0.16702773 0.12229387 0.0912924
0.13139986 0.025787378 0.057918783 -0.038082276 -0.08789551 -0.005175684 -0.16329636 0.14057322
0.12893012 0.121553965 -0.08353851 -0.01758921 0.08092553 0.022769805 -0.11614283 -0.09079532
0.103231005 -0.09434023 -0.06928679 -0.054714296 -0.098940976 -0.116103254 0.08792429 0.0083151935
0.0061018937 -0.025860624 -0.035845086 0.0016980651 0.0019889367 -0.060191695 0.044248972 -0.06863271
00000000: edb5 cd3b a011 d83c 7d4c 02be 892b a8bc
00000010: 706f aabd 7e4e 79bd fec9 8bbb 3276 ef3c
00000020: e0c6 8b3d 16df e83d a16b 3dbd 9f5d 1dbc
00000030: 1b66 e03d fd23 313d 4cb4 2d3c 1fa4 2dbd
00000040: 4eed e0bc 727e 2b3c d570 9f3c 6892 cc3d
00000050: 04fd 4cbe e36b 8fbd fe12 a4bd a62f 893d
00000060: 6806 cbbd 4752 b8bd 2370 9a3d 4772 d83d
00000070: f6c0 3bbd 857a d33c 004c 24bd a5f5 eb3b
00000080: 9c97 abbd edb2 1dbc e6e5 883d d70d b43d
00000090: ee72 12bd aee9 253d 7f0f 10bd 8b34 aabd
000000a0: 2ddc 28bd d8ea 39bd f5ad 823d 44ff 4f3d
000000b0: c458 f83d c897 efbd 8ce1 973c 2e0a 163e
000000c0: 9993 633d 6cb6 f7bb 3e2a e4bc 3a4f 403c
000000d0: f9c0 68bd c771 51bd d75a 133d 7fb8 cd3d
000000e0: 8ad7 0c3b 29d9 ef3d b529 883d 73da 873d
000000f0: 9bbf 643d 690f cf3d 24d2 a7bd 5a71 9a3d
00000100: bbe2 fa3d 2e33 023e f783 3bbd a9a1 93bd
00000110: 5d3f e03c e66e 2d3d d6b4 85bd e36d c7bd
00000120: e29b 38bc 005e dabc e716 f0bc b4f8 e3bd
00000130: e013 573d 615c 3a3d bb4b 6d3c b80f bdbd
00000140: bb57 0c3e 5fdc 23bd 69af a6ba 1a98 cabd
00000150: 98f4 9fbd 6996 a7bd dcd1 54bd c931 9b3c
00000160: 747a cc3d 1244 e7bd ccb0 75bd 801c 4cbc
00000170: 09cd e3bb 9811 383d b0b6 87bc 995f c5bc
00000180: 4558 563d 94bb 91bd ba13 fa3c b8bb 833d
00000190: da2a f23d 8af9 83bd e20c 15be 844f e13c
000001a0: 61bf d33c 6690 623d b1df 473d 07df 683d
000001b0: 239d 88bd 5f61 85bd 0f4d 0abe fc61 e7bd
000001c0: d525 fdbc 897c c3bd 9453 8e3d a96b 9cbc
000001d0: 899a 683d 093a bb3d 2900 333d 9294 293d
000001e0: 75ba c13d e3e8 883d 3e4e 983d 9f4f acbd
000001f0: ffeb 74bd fb1d b73d 72b4 893d 8d31 c53d
00000200: 955b 133d c109 f6bd e15d cebd 7cca 0ebd
00000210: 3371 89bd 4616 dbbc efc9 71bd d81b 3cbd
00000220: 57b9 dcba feb5 173d 549f f23d 61cc b83c
00000230: 0cd9 8e3d e35f cf3d 1958 9ebd d9b8 3cbd
00000240: 5b30 2739 54e2 9e3d 36e4 bd3d c335 d53d
00000250: 76f9 b83a c13b 993d 7076 2a3d 126a fa3d
00000260: 3f6e 2cbb c694 c3bc 58d4 3f3d 6dde 13bd
00000270: 2bd6 07be 3cb2 153d 474b fc3d 60e3 b4bd
00000280: 22af 843c c394 b7bd cf32 1ebe 0372 09be
00000290: 726e 2dbd 5d2c 57bd b9e9 c5bd a13c 613d
000002a0: b348 963d 5de3 bebb b48b f23d eaf7 8b3b
000002b0: 9ef8 57bd f854 d83c 806f 013e 609c b63d
000002c0: 334f a2bd 1c64 c1bd ff0c cfbd 32af e93d
000002d0: f13e 14bd a925 b03d 9a1f ddbd 4afa 26bd
000002e0: 1216 883d 6bda 3fbd ec29 fd3d 8003 f83c
000002f0: 29d6 703d 8d69 d7bb 0530 1c3d d429 d9bd
00000300: fdb0 a53d d72e 5f3b d0ec aabd 59df cbbd
00000310: eae6 163e f1e6 c23d aa25 e03d 57b3 ac3d
00000320: e14b 033e 6639 ab3d 3b43 8abd 684c 833d
00000330: 8b35 ed3d e6de 92bd 809e b83d a1d1 2ebd
00000340: 55c9 e83c 7962 73bc 5e5d 1c3d 995e fabd
00000350: f93e 13be 8063 033d a245 bf3d 0e14 203d
00000360: c11c 54bd c2ec 813d 8772 97bc 20bd 843d
00000370: 6a56 01be 5109 2bbe 3575 fa3d 83f7 ba3d
00000380: af8d 063e 0d40 d33c 3f3c 6d3d 29fc 1bbd
00000390: 9002 b4bd c998 a9bb 2937 27be 6df2 0f3e
000003a0: 4206 043e 49f1 f83d 3d16 abbd 3f17 90bc
000003b0: 49bc a53d be87 ba3c 4bdc edbd e6f2 b9bd
000003c0: c76a d33d 7335 c1bd 3ce6 8dbd 191c 60bd
000003d0: 91a1 cabd 8bc7 edbd a611 b43d 733c 083c
000003e0: 65f2 c73b a9d9 d3bc 4cd2 12bd 9c91 de3a
000003f0: d258 023b 918b 76bd 693e 353d 4e8f 8cbd

bias f4 [32]
0.07947467 0.010487421 0.012198759 -0.01780895 0.083274804 -0.093131095 -0.010533663 0.102352746
0.07242556 -0.018562663 -0.110906884 0.0366789 0.05300148 -0.051276304 -0.069475874 0.029581707
0.06871323 -0.024781482 0.098144665 0.0688587 -0.015796348 -0.006925583 0.047881763 0.0169386
0.032010373 -0.084681846 -0.004307638 0.12516114 -0.040677365 0.05561801 0.10860311 -0.015742071
00000000: 9ec3 a23d 6fd3 2b3c 4edd 473c 13e4 91bc
00000010: fb8b aa3d 84bb bebd 6395 2cbc 519e d13d
00000020: da53 943d ba10 98bc 2623 e3bd 9d3c 163d
00000030: 1418 593d 1a07 52bd 5e49 8ebd 5655 f23c
00000040: 86b9 8c3d 8902 cbbc 1200 c93d ca05 8d3d
00000050: 5867 81bc 00f0 e2bb ab1f 443d d2c2 8a3c
00000060: 4f1d 033d ad6d adbd 1627 8dbb 3e2a 003e
00000070: 4f9d 26bd b6cf 633d 4f6b de3d 84f5 80bc

weight f4 [3, 32, 5, 5]
0.00923938 -0.002462946 0.005390455 0.030288398 0.026404502 0.03389679 0.03206493 -0.0017337418
0.013868748 0.0112771075 0.03154278 -0.0026311686 0.027837934 -0.031102227 0.0071974886 -0.015505981
0.03578696 0.010782066 -0.02288237 -0.023685165 0.009224374 0.025473457 0.0010194059 -0.031981733
-0.025662933 -0.0060048187 -0.014940785 0.01706434 -0.029391088 -0.005417919 -0.023782775 0.031957254
0.020211779 -0.005451996 0.017824491 0.011626189 -0.02252711 0.035605006 -0.013185069 -0.01793226
0.024450358 0.017888855 -0.029516613 -0.00028618908 0.0150172915 -0.030527538 -0.008172814 -0.02930467
0.0045625623 0.033371616 0.021553138 0.0022286025 0.003854391 0.02479999 0.0011407799 -0.024179924
9.584957e-05 0.026912728 0.001629219 0.029035684 0.014375303 -0.0078003993 0.0009214261 -0.023742108
-0.020751705 0.0030664557 0.015112172 0.03296155 0.023875857 -0.024925537 0.016402816 -0.008374792
-0.010764552 0.035364293 0.017393481 0.045274857 -0.02057242 0.017998947 0.0077957558 -0.023669919
-0.021526927 -0.0053227413 0.019777827 -0.038819395 -0.045642942 -0.024662565 -0.024989167 -0.008263224
-0.014824685 -0.01631022 0.016715985 -0.039586533 0.013656029 -0.05105989 -0.05446172 -0.003879237
-0.04702436 -0.06044674 0.00067547313 -0.009305539 -0.017909527 -0.021441896 0.0065439977 -0.012839438
-0.01711681 -0.018271182 -0.0020165036 -0.010730479 -0.018468434 0.049039997 -0.002480568 -0.040649068
-0.042684 -0.0002597881 0.054482557 -0.011435709 -0.010696168 -0.03745373 -0.005210257 0.0474771
-0.012194523 -0.034392364 -0.032607473 0.030159747 0.008811954 0.03445472 0.02490247 0.013042045
0.03626295 0.0333521 0.021809975 0.03377306 0.017520992 -0.01281065 0.022597555 -0.031551182
-0.020959862 0.011528186 -0.032758206 -0.00051575835 -0.007773249 0.009248726 -0.020595444 -0.02927494
-0.012279068 -4.61341e-05 0.0059429756 -0.022607109 0.01595882 -0.017619006 0.043180734 -0.018207824
-0.038997974 -0.04102846 -0.03840585 0.010980672 -0.025834104 -0.03614496 -0.05700263 -0.043821417
0.018698245 -0.003161523 -0.004470382 -0.011689689 -0.01887654 -0.0059191356 -0.02032487 -0.010687207
0.0040249303 -0.011601365 0.008391213 0.046291858 0.049091488 -0.0045559644 0.03969628 0.022051333
0.0030929719 -0.0023048883 0.03509315 0.030623477 -0.0082581565 -0.02072779 -0.02409527 0.009135548
0.0042081582 0.011274156 -0.024700647 0.01894989 -0.03251461 -0.029757155 0.021371147 -0.023125619
-0.0005656302 0.031944834 -0.028445618 0.037103806 -0.023533272 0.008781959 0.036501575 0.03585002
0.00017192544 0.016668836 0.022822417 -0.0073712245 0.020189105 0.028137786 0.023676451 -0.029001622
-0.016143348 -0.0048517967 0.020108277 0.0281255 0.0023792784 -0.014031688 -0.032202538 -0.008077428
0.01834599 0.030310191 -0.014212681 0.03699341 -0.033003192 0.022567373 0.03040888 0.020438489
0.027024807 -0.016408874 -0.024999557 0.018435117 -0.020958574 -0.020594086 -0.015309942 -0.01780103
-0.029973721 0.0051000053 0.031283814 0.035952136 0.0014586077 0.020333713 0.004704843 0.01684503
-0.0071421075 0.010991906 -0.017970493 0.037800606 0.034321837 -0.019123906 0.031889047 0.003471722
0.037237287 0.01810047 0.015420155 0.030099602 -0.030296374 0.026940655 -0.015700763 0.021632718
00000000: c560 173c 6169 21bb 6aa2 b03b 601f f83c
00000010: 414e d83c 5cd7 0a3d 8456 033d b93e e3ba
00000020: bf39 633c 9ec3 383c 0133 013d af6f 2cbb
00000030: 610c e43c 19ca febc e9d8 eb3b cc0c 7ebc
00000040: 5995 123d 43a7 303c cf73 bbbc 6407 c2bc
00000050: d421 173c b6ad d03c 969d 853a 47ff 02bd
00000060: 123b d2bc 12c4 c4bb 32ca 74bc 84ca 8b3c
00000070: 94c5 f0bc cc88 b1bb 18d4 c2bc 9ce5 023d
00000080: 2c93 a53c a8a6 b2bb ab04 923c c57b 3e3c
00000090: c68a b8bc 8ed6 113d 3006 58bc ade6 92bc
000000a0: 1e4c c83c a68b 923c d3cc f1bc a60b 96b9
000000b0: 160b 763c e314 fabc 44e7 05bc 5910 f0bc
000000c0: 8c81 953b adb0 083d 3590 b03c bf0d 123b
000000d0: f399 7c3b 5929 cb3c 3986 953a fa14 c6bc
000000e0: d902 c938 1578 dc3c 858b d53a 3edc ed3c
000000f0: 6486 6b3c 7e9a ffbb dc8b 713a cf7e c2bc
00000100: 7bff a9bc 97f6 483b 0b99 773c b102 073d
00000110: 4d97 c33c a430 ccbc 335f 863c 6c36 09bc
00000120: ce5d 30bc 26da 103d c67c 8e3c 2172 393d
00000130: 7e87 a8bc 8772 933c 8a73 ff3b 6be7 c1bc
00000140: 3d59 b0bc 646a aebb 1c05 a23c 1601 1fbd
00000150: 18f4 3abd 2609 cabc 15b6 ccbc 7962 07bc
00000160: 3ce3 72bc 039d 85bc f6ef 883c 7d25 22bd
00000170: 89bd 5f3c 2d24 51bd 4113 5fbd cc3a 7ebb
00000180: 9e9c 40bd 0097 77bd 3c12 313a 4276 18bc
00000190: 00b7 92bc eaa6 afbc 086f d63b 825c 52bc
000001a0: 8d38 8cbc 72ad 95bc 5127 04bb e4ce 2fbc
000001b0: 1d4b 97bc 2ade 483d 0691 22bb a37f 26bd
000001c0: 6bd5 2ebd 2b34 88b9 1a29 5f3d d75c 3bbc
000001d0: fb3e 2fbc 1569 19bd ceba aabb 5977 423d
000001e0: 89cb 47bc 02df 0cbd 6a8f 05bd 9311 f73c
000001f0: 0460 103c 6420 0d3d 4400 cc3c 4dae 553c
00000200: 7688 143d 369c 083d d5aa b23c 9f55 0a3d
00000210: 2f88 8f3c c3e3 51bc 821e b93c d03b 01bd
00000220: 04b4 abbc b7e0 3c3c 782d 06bd f533 07ba
00000230: bdb6 febb f887 173c c7b7 a8bc 00d2 efbc
00000240: 252e 49bc 1d80 41b8 4bbd c23b 8b32 b9bc
00000250: 12bc 823c bc55 90bc 48de 303d 9328 95bc
00000260: 57bc 1fbd 750d 28bd 744f 1dbd 47e8 333c
00000270: 0ba2 d3bc bd0c 14bd 977b 69bd 167e 33bd
00000280: 102d 993c 8e31 4fbb 487c 92bb 1c86 3fbc
00000290: f9a2 9abc 4ff5 c1bb 5780 a6bc 6519 2fbc
000002a0: 90e3 833b a713 3ebc 4c7b 093c 889c 3d3d
000002b0: 2814 493d 334a 95bb 9198 223d ffa4 b43c
000002c0: 75b3 4a3b 9c0d 17bb d6bd 0f3d 16de fa3c
000002d0: 384d 07bc 54cd a9bc 7263 c5bc 44ad 153c
000002e0: 97e4 893b 3db7 383c 0359 cabc cd3c 9b3c
000002f0: 0a2e 05bd 47c5 f3bc 8b12 af3c f071 bdbc
00000300: cd46 14ba 96d8 023d c906 e9bc 29fa 173d
00000310: d9c8 c0bc 35e2 0f3c ad82 153d 78d7 123d
00000320: e246 3439 158d 883c 14f6 ba3c 508a f1bb
00000330: 9f63 a53c 3781 e63c 1ef5 c13c cf94 edbc
00000340: 0e3f 84bc d2fb 9ebb 1dba a43c 7367 e63c
00000350: abed 1b3b 2ae5 65bc cfe6 03bd 3057 04bc
00000360: 544a 963c 144d f83c 4edc 68bc 6786 173d
00000370: 5b2e 07bd 36df b83c 0b1c f93c 9e6e a73c
00000380: 2163 dd3c e76b 86bc dfcb ccbc 3e05 973c
00000390: 51b1 abbc eeb4 a8bc 8dd6 7abc 77d3 91bc
000003a0: 738b f5bc f21d a73b 7523 003d 8c42 133d
000003b0: c12e bf3a e392 a63c 152b 9a3b 97fe 893c
000003c0: 5708 eabb 6517 343c db36 93bc cfd4 1a3d
000003d0: 0e95 0c3d bda9 9cbc 179e 023d d485 633b
000003e0: 2086 183d 7047 943c d1a4 7c3c 7193 f63c
000003f0: 1a30 f8bc a6b2 dc3c e39e 80bc 1937 b13c

bias f4 [3]
0.019617932 -0.012077692 -0.0025428003
00000000: c9b5 a03c 83e1 45bc 1ca5 26bb

exp_avg f4 [64, 3, 9, 9]
8.878994e-06 6.6206762e-06 6.0225807e-06 5.5209325e-06 4.690231e-06 4.501935e-06 5.8828155e-06 8.138276e-06
9.375668e-06 1.0638158e-05 8.075411e-06 7.638746e-06 7.535026e-06 6.992734e-06 6.7592077e-06 7.755514e-06
9.336798e-06 9.6636095e-06 1.0161687e-05 6.9414755e-06 6.3984653e-06 6.677351e-06 6.7077285e-06 6.925168e-06
8.05758e-06 9.360591e-06 8.973262e-06 9.327303e-06 5.4445472e-06 4.5902016e-06 5.0232434e-06 5.4958937e-06
6.210611e-06 7.671721e-06 8.989006e-06 8.187069e-06 9.276469e-06 5.0459103e-06 3.8017893e-06 4.010312e-06
4.446773e-06 5.2574187e-06 6.8823374e-06 8.341688e-06 7.485398e-06 9.522911e-06 5.394381e-06 3.8147014e-06
3.4545312e-06 3.2836992e-06 3.6341394e-06 5.0819153e-06 6.700546e-06 6.2114777e-06 8.9191235e-06 5.3086474e-06
3.629652e-06 2.6569821e-06 1.6079547e-06 1.1622059e-06 2.1747953e-06 3.9228744e-06 4.0878494e-06 7.4873064e-06
4.7537505e-06 3.4147868e-06 2.2252016e-06 5.7914366e-07 -5.73094e-07 -5.4629655e-08 1.6859028e-06 2.426089e-06
5.9105378e-06 4.298753e-06 3.85341e-06 3.1916536e-06 1.7071198e-06 4.1789653e-07 6.525416e-07 2.213453e-06
3.1213851e-06 6.6225066e-06 4.4402773e-06 4.1337594e-06 4.1106136e-06 3.788442e-06 3.925571e-06 5.3606914e-06
7.460255e-06 8.475578e-06 8.660033e-06 6.190681e-06 6.0569455e-06 6.4459373e-06 6.418836e-06 6.5072763e-06
7.5252788e-06 8.903034e-06 8.961971e-06 8.5054835e-06 5.414223e-06 5.182295e-06 5.956609e-06 6.499018e-06
7.022494e-06 8.126896e-06 9.163998e-06 8.450339e-06 7.938472e-06 4.2387774e-06 3.7098646e-06 4.6331843e-06
5.6004483e-06 6.582488e-06 7.965435e-06 8.952649e-06 7.76638e-06 8.0317e-06 4.0442706e-06 3.1527145e-06
3.8442568e-06 4.7413346e-06 5.7758684e-06 7.265766e-06 8.3291025e-06 7.0467377e-06 8.270246e-06 4.4504923e-06
3.2684175e-06 3.3954389e-06 3.6550837e-06 4.171473e-06 5.4202897e-06 6.5867466e-06 5.627645e-06 7.5662438e-06
4.3236664e-06 3.0878628e-06 2.6103235e-06 1.9765569e-06 1.6398328e-06 2.3943924e-06 3.6431015e-06 3.3008723e-06
5.981997e-06 3.6737588e-06 2.832629e-06 2.1577312e-06 9.047531e-07 -1.7860852e-07 3.8357353e-08 1.2433817e-06
1.4625413e-06 4.251665e-06 3.099747e-06 3.194505e-06 3.0638519e-06 1.9610752e-06 7.1684843e-07 6.319373e-07
1.6445911e-06 2.028628e-06 7.2171524e-06 4.966774e-06 4.4120857e-06 4.1372564e-06 3.6831118e-06 3.8472517e-06
5.3760864e-06 7.639327e-06 8.905618e-06 8.782851e-06 6.1332757e-06 5.6508115e-06 5.7331536e-06 5.5871283e-06
5.786003e-06 7.015327e-06 8.684894e-06 9.1387155e-06 8.331004e-06 4.9589203e-06 4.262005e-06 4.635857e-06
5.006707e-06 5.666088e-06 7.0775204e-06 8.540961e-06 8.379745e-06 7.69888e-06 3.6249703e-06 2.5102406e-06
2.8882557e-06 3.589981e-06 4.682697e-06 6.431916e-06 7.962065e-06 7.463901e-06 8.00204e-06 3.5733808e-06
1.994701e-06 2.001492e-06 2.512097e-06 3.5893756e-06 5.456231e-06 7.1261734e-06 6.6228085e-06 8.769927e-06
4.486125e-06 2.5575257e-06 1.9125223e-06 1.6740472e-06 2.1499807e-06 3.731872e-06 5.5036026e-06 5.3341428e-06
8.807186e-06 5.129827e-06 3.1547731e-06 1.8855861e-06 6.9514385e-07 2.3843094e-07 1.2572038e-06 3.032882e-06
3.4010634e-06 7.939368e-06 5.253275e-06 3.7287125e-06 2.3019948e-06 4.926583e-07 -7.551249e-07 -3.5548527e-07
1.2644094e-06 2.0559091e-06 6.669306e-06 5.1996913e-06 4.6824443e-06 3.8620547e-06 2.2447198e-06 8.2199625e-07
8.5348853e-07 2.1767978e-06 2.9902046e-06 -5.7870097e-06 -5.296973e-06 -4.4233393e-06 -3.5362664e-06 -3.085622e-06
-3.02362e-06 -2.8806965e-06 -2.173603e-06 -1.1859885e-06 -5.5728797e-06 -5.0122962e-06 -4.389006e-06 -3.9744955e-06
00000000: fdf6 1437 2d27 de36 9315 ca36 7340 b936
00000010: c760 9d36 540f 9736 0065 c536 a189 0837
00000020: 304c 1d37 8a7a 3237 a07b 0737 2a28 0037
00000030: 61d5 fc36 21a3 ea36 27cd e236 ae1d 0237
00000040: 3ea5 1c37 e320 2237 1d7c 2a37 d2ea e836
00000050: 66b2 d636 020e e036 f312 e136 bd5e e836
00000060: 0b2f 0737 6f0b 1d37 de8b 1637 767c 1c37
00000070: 4eb0 b636 8805 9a36 558d a836 5e69 b836
00000080: be64 d036 cab5 0037 7dcf 1637 325b 0937
00000090: 22a2 1b37 0a50 a936 3e22 7f36 5190 8636
000000a0: 7d35 9536 e268 b036 d4ee e636 47f3 0b37
000000b0: 142b fb36 97c4 1f37 6101 b536 0900 8036
000000c0: 65d4 6736 865d 5c36 0ae2 7336 5285 aa36
000000d0: 40d5 e036 306c d036 58a3 1537 ef20 b236
000000e0: f294 7336 9b4e 3236 e7d0 d735 17fd 9b35
000000f0: b3f2 1136 3ca1 8336 5c2a 8936 793b fb36
00000100: 6882 9f36 9729 6536 ac54 1536 7376 1b35
00000110: b8d6 19b5 f1a1 6ab3 2e47 e235 e4cf 2236
00000120: 2253 c636 023e 9036 8a4c 8136 3130 5636
00000130: 3120 e535 435b e034 512a 2f35 d58a 1436
00000140: fd78 5136 e636 de36 b1fd 9436 b9b4 8a36
00000150: e7ed 8936 f03c 7e36 66b8 8336 fddf b336
00000160: 1a53 fa36 5532 0e37 8f4a 1137 8bb9 cf36
00000170: c43c cb36 2e4a d836 6261 d736 1459 da36
00000180: a781 fc36 3d5e 1537 5f5b 1637 c6b2 0e37
00000190: d2ab b536 93e3 ad36 e2de c736 2412 da36
000001a0: c4a2 eb36 c158 0837 12bf 1937 eec5 0d37
000001b0: 7a2f 0537 d23a 8e36 fdf6 7836 c076 9b36
000001c0: 7ceb bb36 24df dc36 48a3 0537 5633 1637
000001d0: 594c 0237 e4bf 0637 05b4 8736 3993 5336
000001e0: eafd 8036 c117 9f36 55ce c136 74cc f336
000001f0: 39bd 0b37 0473 ec36 70c0 0a37 7055 9536
00000200: fc56 5b36 32dd 6336 dc49 7536 aef8 8b36
00000210: efdf b536 b903 dd36 1ad5 bc36 8ae1 fd36
00000220: 0314 9136 1439 4f36 042d 2f36 fda4 0436
00000230: 3a18 dc35 59af 2036 027c 7436 8e84 5d36
00000240: f7b8 c836 b28a 7636 3218 3e36 8acd 1036
00000250: 29de 7235 89c7 3fb4 5bbe 2433 45e2 a635
00000260: 894c c435 86a9 8e36 3f05 5036 2e61 5636
00000270: 939c 4d36 049b 0336 736d 4035 67a2 2935
00000280: b8bb dc35 9023 0836 de2a f236 44a8 a636
00000290: 870b 9436 c3d2 8a36 612b 7736 a417 8136
000002a0: 3b64 b436 a92a 0037 5769 1537 0f5a 1337
000002b0: 70cc cd36 1a9c bd36 6a5f c036 1179 bb36
000002c0: 6325 c236 3365 eb36 56b5 1137 7c52 1937
000002d0: 64c5 0b37 cd64 a636 5802 8f36 b58d 9b36
000002e0: 49ff a736 531f be36 707b ed36 264b 0f37
000002f0: bb96 0c37 702a 0137 8444 7336 9b75 2836
00000300: dbd3 4136 67eb 7036 1020 9d36 bdd1 d736
00000310: cf94 0537 6c72 fa36 8040 0637 37ce 6f36
00000320: b4dc 0536 5f51 0636 7f95 2836 01e1 7036
00000330: ab14 b736 5d1d ef36 7e39 de36 8d22 1337
00000340: 8587 9636 f5a1 2b36 e258 0036 d3af e035
00000350: 6348 1036 1371 7a36 96ab b836 f0fb b236
00000360: 93c2 1337 e120 ac36 97b6 5336 3f14 fd35
00000370: ec99 3a35 b301 8034 32bd a835 8488 4b36
00000380: d33d 6436 5333 0537 4a45 b036 cb3a 7a36
00000390: f87b 1a36 383f 0435 cab3 4ab5 86d9 beb4
000003a0: c7b4 a935 40f8 0936 e7c8 df36 0279 ae36
000003b0: e41d 9d36 cc96 8136 fea3 1636 27a7 5c35
000003c0: 491b 6535 1a15 1236 53ab 4836 092e c2b6
000003d0: a7bc b1b6 326c 94b6 9850 6db6 9512 4fb6
000003e0: 65e9 4ab6 fd51 41b6 37de 11b6 412e 9fb5
000003f0: acfe bab6 4c2f a8b6 4645 93b6 a85c 85b6

exp_avg_sq f4 [64, 3, 9, 9]
5.144153e-09 4.948932e-09 4.667219e-09 4.4046997e-09 4.2262496e-09 4.139198e-09 4.1359565e-09 4.213408e-09
4.348247e-09 5.2345555e-09 4.9943685e-09 4.6674926e-09 4.3617114e-09 4.144377e-09 4.0298183e-09 4.0143924e-09
4.0898303e-09 4.227465e-09 5.3803464e-09 5.1099986e-09 4.7471063e-09 4.4072737e-09 4.1602113e-09 4.0196286e-09
3.9827217e-09 4.040052e-09 4.1641663e-09 5.597149e-09 5.318583e-09 4.93695e-09 4.572712e-09 4.298969e-09
4.130864e-09 4.0677754e-09 4.0984203e-09 4.195366e-09 5.8623812e-09 5.606948e-09 5.2363105e-09 4.867206e-09
4.5724895e-09 4.3738893e-09 4.279471e-09 4.278289e-09 4.3380037e-09 6.1401355e-09 5.9462524e-09 5.6230807e-09
5.2762226e-09 4.9726796e-09 4.7428483e-09 4.610814e-09 4.574066e-09 4.594843e-09 6.393687e-09 6.2917e-09
6.048205e-09 5.75263e-09 5.462141e-09 5.21289e-09 5.0450835e-09 4.9716866e-09 4.956511e-09 6.558897e-09
6.5516064e-09 6.4032166e-09 6.1854983e-09 5.9397194e-09 5.6990954e-09 5.512807e-09 5.408893e-09 5.357862e-09
6.559576e-09 6.6220642e-09 6.5622063e-09 6.4335652e-09 6.2573395e-09 6.0541296e-09 5.875282e-09 5.757438e-09
5.673796e-09 5.355302e-09 5.1632205e-09 4.867686e-09 4.584607e-09 4.3855986e-09 4.285424e-09 4.2803765e-09
4.3635726e-09 4.5090416e-09 5.426123e-09 5.1895275e-09 4.8503943e-09 4.527313e-09 4.2937054e-09 4.167884e-09
4.149481e-09 4.2277195e-09 4.3749715e-09 5.5512053e-09 5.2836118e-09 4.9098805e-09 4.5555546e-09 4.296576e-09
4.148377e-09 4.10906e-09 4.167051e-09 4.298434e-09 5.7507568e-09 5.471728e-09 5.0784816e-09 4.7013486e-09
4.4201895e-09 4.249958e-09 4.1872554e-09 4.2181276e-09 4.320452e-09 6.008076e-09 5.748379e-09 5.3636526e-09
4.9819504e-09 4.6831587e-09 4.487727e-09 4.397308e-09 4.3973234e-09 4.461912e-09 6.28874e-09 6.087975e-09
5.7483094e-09 5.3881517e-09 5.0817692e-09 4.8583773e-09 4.7334403e-09 4.6997632e-09 4.7264694e-09 6.554861e-09
6.444506e-09 6.1828405e-09 5.8729492e-09 5.5803313e-09 5.3396296e-09 5.1820566e-09 5.1151607e-09 5.107456e-09
6.7339188e-09 6.7172548e-09 6.549707e-09 6.3175993e-09 6.0710286e-09 5.8423075e-09 5.6715206e-09 5.5790403e-09
5.536792e-09 6.73772e-09 6.7894126e-09 6.7096044e-09 6.56777e-09 6.3929853e-09 6.2062115e-09 6.049614e-09
5.9494347e-09 5.8759047e-09 4.686338e-09 4.510177e-09 4.241873e-09 3.9869423e-09 3.806758e-09 3.7079788e-09
3.689296e-09 3.7547787e-09 3.882821e-09 4.7621067e-09 4.5440953e-09 4.2338963e-09 3.940827e-09 3.7299213e-09
3.6102248e-09 3.580294e-09 3.6406613e-09 3.768883e-09 4.8863638e-09 4.640045e-09 4.2978807e-09 3.9744767e-09
3.7390584e-09 3.5996184e-09 3.5519585e-09 3.5949994e-09 3.7096062e-09 5.0767044e-09 4.819983e-09 4.460702e-09
4.115073e-09 3.8558756e-09 3.6938794e-09 3.6249908e-09 3.6457264e-09 3.7373358e-09 5.3168585e-09 5.0757807e-09
4.724176e-09 4.373357e-09 4.0948227e-09 3.9060515e-09 3.811065e-09 3.806166e-09 3.8677497e-09 5.5804725e-09
5.389703e-09 5.0780264e-09 4.7464295e-09 4.459984e-09 4.2438777e-09 4.1162314e-09 4.0807766e-09 4.109128e-09
5.8358944e-09 5.727028e-09 5.4852194e-09 5.1991904e-09 4.924746e-09 4.6920907e-09 4.5337414e-09 4.465585e-09
4.4596575e-09 6.009516e-09 5.989189e-09 5.833149e-09 5.61571e-09 5.380831e-09 5.1567968e-09 4.9850164e-09
4.8921214e-09 4.8515183e-09 6.011512e-09 6.058692e-09 5.9841807e-09 5.8468563e-09 5.672528e-09 5.4821703e-09
5.3214113e-09 5.221746e-09 5.152919e-09 2.5253842e-08 2.5398116e-08 2.5470085e-08 2.5461691e-08 2.5373714e-08
2.5208719e-08 2.4984134e-08 2.4734822e-08 2.449654e-08 2.536224e-08 2.5520317e-08 2.5601786e-08 2.5593327e-08
00000000: 73c0 b031 440b aa31 4b5d a031 2658 9731
00000010: 7c36 9131 c538 8e31 421c 8e31 87c5 9031
00000020: 9667 9531 a3db b331 ee9a ab31 b35f a031
00000030: 05de 9531 5366 8e31 a876 8a31 f8ee 8931
00000040: 8786 8c31 2d41 9131 07de b831 0694 af31
00000050: fd1b a331 ca6e 9731 9bf1 8e31 071d 8a31
00000060: 64d8 8831 acd0 8a31 6514 8f31 0b51 c031
00000070: c0be b631 dfa1 a931 001e 9d31 22b6 9331
00000080: 77ef 8d31 88c4 8b31 16d2 8c31 d426 9031
00000090: 0d6e c931 3ca7 c031 13eb b331 663c a731
000000a0: 0b1c 9d31 2349 9631 a00a 9331 3a00 9331
000000b0: 7c0d 9531 34f9 d231 ca4f cc31 2435 c131
000000c0: 254a b531 27dc aa31 89f6 a231 266d 9e31
000000d0: e929 9d31 abe0 9d31 77af db31 612e d831
000000e0: 93d0 cf31 aba8 c531 80ad bb31 111d b331
000000f0: 0659 ad31 6bd3 aa31 ef4d aa31 ab5c e131
00000100: 8a1c e131 4a03 dc31 3888 d431 5316 cc31
00000110: c6d1 c331 2a6b bd31 20d9 b931 4118 b831
00000120: a462 e131 4b88 e331 c779 e131 3d0e dd31
00000130: 2400 d731 b004 d031 87df c931 f6d2 c531
00000140: 3df3 c231 bc01 b831 2b68 b131 9e40 a731
00000150: a186 9d31 22b0 9631 fd3e 9331 9712 9331
00000160: 64ee 9531 f3ed 9a31 af70 ba31 914f b231
00000170: 85a8 a631 ab8e 9b31 d587 9331 1835 8f31
00000180: 3993 8e31 6a43 9131 a852 9631 ebbc be31
00000190: 248b b531 c4b3 a831 1587 9c31 15a1 9331
000001a0: 8389 8e31 ad2f 8d31 c52d 8f31 6db1 9331
000001b0: 3198 c531 d401 bc31 cc7e ae31 8089 a131
000001c0: 66e0 9731 0707 9231 7ddf 8f31 0bef 9031
000001d0: 1973 9431 986f ce31 4783 c531 304b b831
000001e0: b32d ab31 80e9 a031 7732 9a31 2117 9731
000001f0: 4417 9731 654f 9931 5814 d831 652e d131
00000200: aa82 c531 af22 b931 b79b ae31 bdee a631
00000210: c8a3 a231 8e7b a131 7766 a231 2b39 e131
00000220: 796e dd31 d770 d431 02cb c931 1dbd bf31
00000230: e177 b731 da0d b231 6ec1 af31 a87d af31
00000240: 2d60 e731 99cd e631 d50b e131 3112 d931
00000250: 5599 d031 7bbd c831 39df c231 c2b1 bf31
00000260: 233e be31 9d81 e731 4e48 e931 4e8a e631
00000270: b7aa e131 4ba9 db31 6a3e d531 f8dc cf31
00000280: c86b cc31 01e5 c931 7705 a131 f0f7 9a31
00000290: e9bf 9131 84fd 8831 99cc 8231 74cf 7e31
000002a0: c886 7d31 6203 8131 a869 8531 ef9f a331
000002b0: 4922 9c31 bf79 9131 e267 8731 bc28 8031
000002c0: bf17 7831 3309 7631 312f 7a31 727f 8131
000002d0: e9e4 a731 446e 9f31 8fac 9331 de8f 8831
000002e0: 1b79 8031 285d 7731 b716 7431 e60b 7731
000002f0: 15ec 7e31 2a6f ae31 059d a531 c044 9931
00000300: 9164 8d31 a47c 8431 6ad7 7d31 831b 7931
00000310: 4c88 7a31 f469 8031 95af b631 0a67 ae31
00000320: 4b52 a231 7444 9631 71b2 8c31 fe35 8631
00000330: 7bf2 8231 64c7 8231 16e5 8431 5bbe bf31
00000340: 5430 b931 cb7a ae31 0916 a331 6f3e 9931
00000350: 8bd1 9131 c16e 8d31 e436 8c31 4630 8d31
00000360: 1285 c831 79c7 c431 8078 bc31 90a4 b231
00000370: 8636 a931 1138 a131 36c7 9b31 b36f 9931
00000380: 903b 9931 437c ce31 77c9 cd31 ec6c c831
00000390: 4ff4 c031 4ae2 b831 aa2f b131 ab48 ab31
000003a0: 8e17 a831 68b2 a631 d28d ce31 d22c d031
000003b0: 699d cd31 7ee5 c831 15e8 c231 ae5d bc31
000003c0: a1d7 b631 f76a b331 8e0d b131 c9ed d832
000003d0: 0c2b da32 4fc9 da32 dab6 da32 63f5 d932
000003e0: 8f8a d832 b19c d632 7378 d432 766c d232
000003f0: 28dc d932 c537 db32 ecea db32 52d8 db32

exp_avg f4 [64]
1.1506199e-05 -2.2099962e-06 1.1115849e-06 6.4791093e-06 -2.3212415e-05 -4.0300815e-06 -1.9995066e-05 5.4798534e-07
-5.688889e-06 -3.3916167e-05 1.0069477e-05 4.7800636e-06 -2.3912462e-05 -2.4824358e-06 -1.2125376e-05 -2.7782675e-05
-6.555503e-06 -1.1282636e-05 -1.4739055e-05 -1.9262666e-06 6.2334802e-06 2.73967e-06 -1.3439223e-05 1.655672e-05
8.683297e-06 1.0611716e-05 5.2328846e-06 -1.813881e-05 2.2397799e-05 5.0512494e-06 -2.6569349e-05 1.7793561e-06
-1.015118e-05 -1.6181059e-05 6.0958937e-06 6.330054e-06 -1.1958522e-05 1.2662627e-05 3.151989e-05 -1.0467924e-05
-2.8543818e-05 4.160132e-06 5.996777e-06 -1.6329755e-05 -2.1663744e-05 -1.0173668e-05 -1.5862584e-05 1.7883821e-06
-2.1372493e-06 2.235403e-05 -1.0561727e-05 -1.370237e-06 1.223495e-05 -2.3004063e-06 -1.5134341e-06 5.325099e-06
-2.728275e-05 2.1553908e-05 -1.2793539e-05 2.4872236e-06 -5.913946e-06 -6.9940493e-06 -9.328424e-06 1.0606918e-05
00000000: c00a 4137 724f 14b6 c431 9535 2067 d936
00000010: 48b8 c2b7 233a 87b6 14bb a7b7 4419 1335
00000020: 2fe3 beb6 3541 0eb8 13f0 2837 6f64 a036
00000030: 9f97 c8b7 ec97 26b6 186e 4bb7 d70e e9b7
00000040: 58f7 dbb6 8d4a 3db7 c247 77b7 0245 01b6
00000050: 3029 d136 2cdb 3736 0679 61b7 49e3 8a37
00000060: 7aae 1137 f908 3237 2396 af36 cc28 98b7
00000070: e8e2 bb37 e77d a936 3ee1 deb7 36d2 ee35
00000080: fc4e 2ab7 8fbc 87b7 548b cc36 c066 d436
00000090: 76a1 48b7 9271 5437 3934 0438 649f 2fb7
000000a0: 6271 efb7 4397 8b36 ec37 c936 e2fb 88b7
000000b0: 89ba b5b7 92af 2ab7 a410 85b7 5708 f035
000000c0: aa6d 0fb6 ea84 bb37 4632 31b7 fce8 b7b5
000000d0: b644 4d37 ae60 1ab6 3321 cbb5 41ae b236
000000e0: 42dd e4b7 aace b437 d5a3 56b7 2dea 2636
000000f0: 6970 c6b6 6dae eab6 4781 1cb7 5ef4 3137

exp_avg_sq f4 [64]
1.610835e-08 8.285547e-08 2.4466295e-11 1.8508544e-08 3.5840227e-08 5.5813967e-08 7.974657e-08 1.7426697e-08
3.9483834e-09 2.9051296e-07 6.5408635e-08 4.4506367e-09 5.609913e-08 2.6825724e-08 1.4889846e-08 1.0857712e-07
3.3443088e-09 4.329228e-08 1.8882147e-08 2.9844993e-10 4.7192543e-09 3.514328e-08 2.0850617e-08 1.649407e-08
3.592411e-08 6.141985e-08 2.2432145e-08 7.4469376e-08 1.1316318e-07 1.7579812e-09 9.6760814e-08 7.613665e-08
1.1353794e-08 7.350201e-08 8.670586e-08 4.0508548e-09 6.8028875e-08 8.001725e-09 4.673318e-08 3.433188e-08
5.002198e-08 5.2192345e-08 1.066676e-07 5.4285554e-08 2.3772744e-08 7.578335e-09 5.5218e-09 1.1809367e-08
9.114608e-09 1.392246e-07 1.0331296e-07 7.375072e-08 6.4484084e-08 3.963454e-08 7.187399e-09 7.883802e-09
1.3260598e-07 6.8903354e-08 1.02891555e-07 8.199315e-09 2.059726e-10 5.57236e-09 6.4749117e-09 1.314831e-08
00000000: a35e 8a32 47ee b133 3335 d72d b8fc 9e32
00000010: bfee 1933 1bb8 6f33 2441 ab33 b6b1 9532
00000020: 59aa 8731 ccf7 9b34 c776 8c33 37ec 9831
00000030: a5f1 7033 646e e632 3cce 7f32 e72a e933
00000040: b4d1 6531 5ef0 3933 4832 a232 1813 a42f
00000050: 0027 a231 72f0 1633 fe1a b332 d8ae 8d32
00000060: fa4a 1a33 ebe5 8333 cfb0 c032 f9eb 9f33
00000070: 1e04 f333 779d f130 d2ca cf33 9180 a333
00000080: 840e 4332 28d8 9d33 0d33 ba33 b22f 8b31
00000090: 4517 9233 f577 0932 adb7 4833 4d74 1333
000000a0: c0d7 5633 172a 6033 2211 e533 9927 6933
000000b0: d134 cc32 df31 0232 44ba bd31 25e2 4a32
000000c0: 7896 1c32 c47d 1534 e7dc dd33 e360 9e33
000000d0: 807a 8a33 a33a 2a33 08f5 f631 5471 0732
000000e0: 7462 0e34 05f8 9333 3bf5 dc33 f8dc 0c32
000000f0: 2278 622f ff76 bf31 ed79 de31 e1e2 6132

exp_avg f4 [32, 64, 1, 1]
1.8633564e-07 -1.8821313e-06 2.0950517e-07 -1.6702214e-07 7.2889935e-07 4.1274248e-08 -3.29743e-06 -2.1910912e-06
-3.260783e-06 -3.3741503e-06 -2.3581615e-06 -2.6181497e-06 -2.2063073e-06 -7.9127784e-07 -1.5906853e-06 2.3829093e-06
-7.975635e-09 -3.081421e-06 -6.0999486e-07 3.8817083e-07 -2.612194e-07 -2.4275905e-06 -3.312037e-06 5.796111e-07
-1.2121782e-06 4.826253e-07 -3.2484686e-06 -2.188369e-06 -1.4605227e-07 1.4184933e-06 -2.9472278e-06 -1.110529e-06
-1.1340569e-06 -2.7391712e-07 -1.37526595e-08 -4.158046e-06 -1.6852785e-07 -2.3462117e-06 -2.1165877e-06 5.885326e-07
-7.6730237e-07 -5.343168e-07 -1.039126e-06 -2.5243576e-06 -2.4804642e-06 -2.717468e-07 3.1983046e-07 -1.6661004e-06
-1.0672661e-06 -2.1026976e-06 -2.5528673e-06 -3.4420957e-06 -1.7358244e-06 -1.8702802e-07 -2.3682328e-06 -2.3288126e-07
-3.31153e-06 -9.1659143e-07 -9.2716493e-07 4.5516313e-07 -6.265962e-07 2.0036788e-07 -9.58945e-08 1.1988877e-06
2.2826269e-07 -1.1457988e-05 -8.459739e-09 -8.689766e-06 -5.921999e-06 -3.0381453e-09 -1.0994783e-05 -2.7714577e-06
-2.8200793e-05 -1.2480552e-05 -1.6022155e-05 -1.3975393e-05 -2.1586733e-05 -9.800542e-06 -2.0565262e-06 -9.0393985e-07
-5.2272208e-06 -1.6319624e-05 -7.0575147e-06 -7.174103e-08 -4.1955334e-07 -1.4841593e-05 -1.3628919e-05 6.9681654e-08
-9.66734e-06 -4.958646e-06 -1.3631457e-05 -9.407592e-06 -9.49817e-06 -1.1189829e-06 -8.955514e-06 -7.649997e-06
-5.775535e-06 -7.322152e-06 -8.577892e-06 -1.9143035e-05 -1.4127607e-05 -1.2912121e-05 -5.922169e-06 -8.023478e-06
-1.1020645e-05 -5.7923585e-06 -1.2494734e-05 -1.4448645e-05 -7.535199e-06 -4.1755534e-06 3.4370734e-07 -1.2541272e-05
-5.010698e-06 -5.846448e-06 -1.66493e-05 -1.641498e-05 -4.350041e-06 -1.1017654e-06 -1.7005916e-05 -3.728637e-07
-1.2265599e-05 -1.4738428e-05 -1.3312802e-05 -1.6616079e-07 4.5029046e-07 -4.457309e-08 6.7509966e-08 -3.6867723e-06
5.5860227e-07 -1.6416425e-05 9.640165e-08 -1.3548798e-05 -1.1904061e-05 -1.6362492e-08 -1.6425784e-05 -4.896061e-06
-4.166816e-05 -1.8094222e-05 -2.3091085e-05 -2.127852e-05 -3.25096e-05 -1.5842325e-05 -4.3834225e-06 7.124302e-07
-7.421585e-06 -2.4812998e-05 -9.414428e-06 -5.7948604e-08 2.1899261e-07 -2.092625e-05 -2.1906524e-05 2.3047038e-07
-1.527535e-05 -8.148434e-06 -2.0274505e-05 -1.4093288e-05 -1.0178957e-05 -2.8051107e-07 -1.3462743e-05 -7.706398e-06
-8.693639e-06 -1.1598346e-05 -9.379231e-06 -2.7829768e-05 -2.1117079e-05 -2.0967593e-05 -8.95078e-06 -1.2141782e-05
-1.6766302e-05 -8.710479e-06 -1.9108053e-05 -2.2371501e-05 -1.0839666e-05 -5.63207e-06 -2.90805e-07 -1.85233e-05
-5.825327e-06 -7.808087e-06 -2.5054605e-05 -2.372551e-05 -5.367717e-06 -2.3353303e-07 -2.8088258e-05 -6.6321945e-08
-1.7962071e-05 -1.8331824e-05 -2.0332653e-05 -5.144121e-08 -2.436692e-07 6.921929e-08 -1.6711641e-07 -5.8255814e-06
1.8471088e-06 -4.5078377e-05 1.0134566e-07 -3.980161e-05 -3.3782275e-05 -1.274444e-07 -4.7436868e-05 -1.2904519e-05
-0.00011746554 -4.9245995e-05 -6.403845e-05 -5.718906e-05 -8.6916036e-05 -4.3162265e-05 -1.4203928e-05 1.7870674e-06
-2.058141e-05 -7.4077136e-05 -3.5231278e-05 1.9153815e-07 7.131461e-07 -6.154395e-05 -5.2419487e-05 -2.5562238e-07
-3.9180482e-05 -2.5793823e-05 -5.28066e-05 -3.9047813e-05 -2.9912684e-05 -1.5615037e-06 -3.6570884e-05 -2.9593073e-05
-2.6279062e-05 -3.8134403e-05 -3.713423e-05 -7.347436e-05 -5.9668368e-05 -5.478774e-05 -2.6179601e-05 -3.5558067e-05
-5.0081024e-05 -1.9663254e-05 -5.1682244e-05 -6.0748345e-05 -3.144121e-05 -1.8527038e-05 2.2770907e-06 -4.9697213e-05
-1.5123624e-05 -2.0573912e-05 -6.844739e-05 -6.709652e-05 -1.1276915e-05 -1.1522111e-06 -7.7872966e-05 -7.0108777e-09
-4.9688202e-05 -5.916835e-05 -5.429828e-05 -7.863263e-07 1.1100856e-06 3.8439066e-07 -6.310351e-07 -1.4282256e-05
00000000: 8d13 4834 8a9d fcb5 58f4 6034 b256 33b4
00000010: 95a9 4335 8445 3133 6b49 5db6 a90a 13b6
00000020: d3d3 5ab6 766f 62b6 e840 1eb6 78b3 2fb6
00000030: 1210 14b6 3368 54b5 887f d5b5 12ea 1f36
00000040: 3705 09b2 69ca 4eb6 87be 23b5 cb65 d034
00000050: b93d 8cb4 b0e9 22b6 5d44 5eb6 9296 1b35
00000060: 20b2 a2b5 c28d 0135 4400 5ab6 e5db 12b6
00000070: 8bd2 1cb4 0f63 be35 fdc8 45b6 7c0d 95b5
00000080: e635 98b5 e20e 93b4 d644 6cb2 5885 8bb6
00000090: 95f4 34b4 9c73 1db6 b30a 0eb6 a7fb 1d35
000000a0: 9ef8 4db5 f96d 0fb5 1978 8bb5 2268 29b6
000000b0: 0d76 26b6 99e4 91b4 2ab5 ab34 c69e dfb5
000000c0: fc3e 8fb5 121c 0db6 ed51 2bb6 c1fe 66b6
000000d0: 79fa e8b5 dfd1 48b4 eeed 1eb6 ea0d 7ab4
000000e0: a73b 5eb6 af0b 76b5 4ae2 78b5 255d f434
000000f0: 5d33 28b5 b424 5734 8fee cdb3 78e9 a035
00000100: 5f18 7534 af3b 40b7 5356 11b2 43ca 11b7
00000110: 96b5 c6b6 9ec7 50b1 3c76 38b7 48fd 39b6
00000120: be90 ecb7 9063 51b7 5167 86b7 db77 6ab7
00000130: 2815 b5b7 026d 24b7 da02 0ab6 46a6 72b5
00000140: 7c65 afb6 20e6 88b7 97cf ecb6 0c10 9ab3
00000150: f93e e1b4 2800 79b7 c3a7 64b7 e5a3 9533
00000160: e930 22b7 7262 a6b6 a9b2 64b7 4dd5 1db7
00000170: 545a 1fb7 f62f 96b5 a43f 16b7 7d58 00b7
00000180: 78cb c1b6 cfb0 f5b6 c4e9 0fb7 5b95 a0b7
00000190: 9c05 6db7 23a1 58b7 0bb7 c6b6 939c 06b7
000001a0: 4fe5 38b7 fb5b c2b6 79a0 51b7 7568 72b7
000001b0: ded6 fcb6 bb1b 8cb6 c786 b834 5a68 52b7
000001c0: 9121 a8b6 9b2c c4b6 19aa 8bb7 e7b2 89b7
000001d0: 91f6 91b6 5fe0 93b5 eda7 8eb7 ff2d c8b4
000001e0: 59c8 4db7 1145 77b7 0d5a 5fb7 ee69 32b4
000001f0: 73bf f134 a170 3fb3 fff9 9033 446a 77b6
00000200: dbf2 1535 01b6 89b7 5e05 cf33 a54f 63b7
00000210: 8db7 47b7 808d 8cb2 1aca 89b7 d848 a4b6
00000220: d9c4 2eb8 0cc9 97b7 bab3 c1b7 467f b2b7
00000230: eb5a 08b8 22e5 84b7 5015 93b6 d53d 3f35
00000240: ee06 f9b6 8225 d0b7 a9f2 1db7 2ae3 78b3
00000250: 3b24 6b34 c88a afb7 e7c3 b7b7 3777 7734
00000260: 9023 80b7 42b5 08b7 2b13 aab7 3672 6cb7
00000270: 4ac6 2ab7 2699 96b4 0ade 61b7 ba4a 01b7
00000280: e5da 11b7 8496 42b7 7e5b 1db7 f973 e9b7
00000290: 9524 b1b7 90e3 afb7 4f2b 16b7 8eb4 4bb7
000002a0: 5ca5 8cb7 3923 12b7 3b4a a0b7 6faa bbb7
000002b0: 03dc 35b7 1dfb bcb6 ef1f 9cb4 7c62 9bb7
000002c0: 2e77 c3b6 7aff 02b7 5b2c d2b7 2506 c7b7
000002d0: 571c b4b6 12c1 7ab4 139f ebb7 e06c 8eb3
000002e0: 41ad 96b7 4bc7 99b7 0a90 aab7 35f0 5cb3
000002f0: a4d1 82b4 b5a5 9433 9c70 33b4 5d79 c3b6
00000300: 2dea f735 8a12 3db8 5ea3 d933 a7f0 26b8
00000310: 71b1 0db8 a6d7 08b4 f3f6 46b8 7d80 58b7
00000320: d557 f6b8 7c8d 4eb8 624c 86b8 49de 6fb8
00000330: b146 b6b8 2109 35b8 684d 6eb7 2bdb ef35
00000340: 3ea6 acb7 dc59 9bb8 4cc5 13b8 9ba9 4d34
00000350: 076f 3f35 2811 81b8 ffdc 5bb8 793c 89b4
00000360: b955 24b8 d05f d8b7 a87c 5db8 45c7 23b8
00000370: 00ed fab7 dc94 d1b5 b063 19b8 a43e f8b7
00000380: db71 dcb7 81f2 1fb8 93c0 1bb8 3f16 9ab8
00000390: 6c44 7ab8 e3cb 65b8 449c dbb7 2f24 15b8
000003a0: 170e 52b8 84f2 a4b7 63c5 58b8 0acc 7eb8
000003b0: bedf 03b8 836a 9bb7 1fd0 1836 fa71 50b8
000003c0: 78bb 7db7 2496 acb7 6a8b 8fb8 2bb6 8cb8
000003d0: fb31 3db7 aca5 9ab5 bb4f a3b8 55e4 f0b1
000003e0: 4d68 50b8 882b 78b8 56be 63b8 ef13 53b5
000003f0: 40fe 9435 405e ce34 6764 29b5 d39d 6fb7
